results/base/saved_models/best_model.pth (torch, 289621 bytes, 116 tensors)

block1.0.weight f4 [32, 1, 7]
00000000: ed7e 723c f6f4 293c e590 863d 0d5e 30be
00000010: 4b0a a73e 3a38 47bc 9951 31be 7fa2 14bd
00000020: d4a5 773d fd94 99be 2494 ae3e 85da 64be
00000030: f934 65bd 8815 12be e6c7 89be d309 b6be
00000040: 0106 2f3e 772f b6be 82c5 1ebe 0624 8c3c
00000050: 52ff 513e 365f 443e 7fc8 a83e c4cb 5c3b
00000060: 2fc9 c53d ed9d 253e 03af 9cbe eb71 963c
00000070: 6348 3c3e dc97 c9bd b62f b4bd 38ee a13d
00000080: b2d6 b43c 2b43 463e d7b1 96be e038 1b3d
00000090: 72aa 4dbe 4c80 b93e 0339 50bd ea5a 3c3e
000000a0: 0824 153e 1392 8bbd 54f5 433e 4096 923d
000000b0: 6dc1 1c3e f8b0 babe ec6d 803d 2936 993e
000000c0: d88b 6abe f34b 753e 975e aa3d 7db1 bb3d
000000d0: f1a9 b9be 0193 72be df9e 193d f154 6dbe
000000e0: 806c 093e 9387 a53e 2191 5dbe cedf 853e
000000f0: d347 b93d 11d4 7c3e 9442 653e 3a8e 7bbe
00000100: e963 403e 7667 a43e 746e 993d e142 933e
00000110: 750e 9d3e 8930 13bc 8c5b a8be 2dfa 5ebe
00000120: 180e b83e 1def 923e 7fb8 a03e f4ac 33be
00000130: fc14 a53e b029 0c3d f6cf fe3d 97e3 07bd
00000140: 4df9 583e 15bd 81bd d6af 5fbd 8500 7a3e
00000150: ec84 1b3c 0910 4fbe 2910 643e e59d a03e
00000160: ff86 3d3e d381 32bd 76a3 87be f2ae 9e3e
00000170: 25e2 533e 6930 14be f51d babd 1f31 bd3e
00000180: dc85 233e 387a 283e 98e5 9e3d fdbc 043e
00000190: 077e dcbd e194 9cbe 03ae 903d a1eb 6fbe
000001a0: 9d8f 95be 1215 7c3e 4380 223d 8d60 c03d
000001b0: 2a71 94be 525b 893e 4860 6abd 74d3 283d
000001c0: 3590 373d 0f11 80be 622b 8c3e de8e a5be
000001d0: 61bb 71be 1042 abbc 84e9 a5be dfd7 093e
000001e0: b18a 29bd b8ff 64bd ae15 adbe 5264 af3e
000001f0: 0de8 7e3e 64c5 26be d30e c03d a0b1 9f3e
00000200: 8cd3 42be 4eaf bd3e 500c 64be 5f83 623d
00000210: a532 2bbe d24c 2ebe 15c2 23be 45ab d5bd
00000220: 2930 8dbe 3277 15be d20a 2ebe 546b 28bd
00000230: 6358 8dbe 561c 963c 2318 463e b989 bebe
00000240: 43ec 473e c8c5 c5bd a35c adbd 05c5 b33d
00000250: 9f08 3ebe 49c0 513e 5e84 f5bd d25b e9bd
00000260: 5c3d babe 2fa4 22be 47e5 6fbe 3e93 2ebe
00000270: 6c6e 8abe e871 1cbe 8c1e af3e c736 1fbd
00000280: 4e29 323d 2455 b73e ddaf aabe af9b 8ebe
00000290: a002 d73c 26c0 dc3c d1bc 53be cd5b aabe
000002a0: 38ac 50be 7d0f 2cbd dd40 8dbe f919 bcbe
000002b0: 6be1 55be 11f5 a93e 1a5f 99be 99ae 493d
000002c0: 1b28 85be 4067 90bd c36e 5e3e 48cd ce3b
000002d0: 2ca1 5b3e 8a70 6abe ae56 73be 9264 c43d
000002e0: bc8a 79be 013e b63e ff20 6dbc ad6d 83be
000002f0: bddb b7bd 37a2 b93e 41c7 053e 3620 5a3e
00000300: 298d 0ebe f910 9cbd 0dce b93e adc3 9ebd
00000310: 93d0 af3e b282 9cbe c49c b53e 1b5c b13e
00000320: 8e46 3b3d e12a dcbd 8090 81ba d2e1 633e
00000330: 8ee7 533e fff1 cfbd 78ec a23e 8aa9 be3d
00000340: 64c1 45bc 3947 e3bc 42ab 9d3e d81d 55be
00000350: dec5 983e c019 d53c 78c6 e73d a8fc cd3c
00000360: 0ff6 d1bd b2f2 4dbe 1a2f ffbd bb43 cd3c
00000370: f20a 32be e358 a53d c4e9 163e 28cb a1be
0.014800769 0.010373345 0.06570605 -0.17223378 0.3262504 -0.012159402 -0.17316283 -0.03628778
0.06046088 -0.29996482 0.34097397 -0.22348984 -0.05595872 -0.14266026 -0.26910323 -0.3555437
0.17092134 -0.35583088 -0.15505031 0.017107021 0.20507553 0.19176945 0.32965466 0.003369079
0.09657513 0.16173525 -0.30602273 0.018364867 0.18386988 -0.09843418 -0.08798163 0.07906765
0.022075031 0.1936156 -0.29432556 0.037896037 -0.20084551 0.36230695 -0.05083562 0.18394056
0.14564526 -0.06814971 0.19136554 0.07157564 0.15308161 -0.3646314 0.06270966 0.29924133
-0.22904909 0.23954754 0.08318823 0.091647126 -0.36262468 -0.2368889 0.037505027 -0.23176934
0.13420296 0.32329997 -0.21637394 0.26147312 0.090469025 0.24690272 0.22388679 -0.24565974
0.18788113 0.32110184 0.074917704 0.28761962 0.30675092 -0.00898374 -0.32882345 -0.21775122
0.35948253 0.28698054 0.3139076 -0.17546445 0.32242572 0.034219444 0.12442009 -0.03317603
0.2118885 -0.06334893 -0.05461105 0.2441426 0.00949214 -0.2022096 0.2227179 0.31370464
0.18508528 -0.04358084 -0.26491898 0.30992848 0.20691736 -0.14471592 -0.09087745 0.3695154
0.15969032 0.16452873 0.07758635 0.12962718 -0.10766225 -0.30582336 0.0706444 -0.23429729
-0.2921113 0.24617413 0.0396731 0.093934156 -0.28992587 0.26827484 -0.057220727 0.041217282
0.04481526 -0.25013015 0.27376848 -0.32335562 -0.23606636 -0.020905524 -0.3240472 0.13461255
-0.041392032 -0.055907935 -0.33805603 0.34256226 0.24893208 -0.16286236 0.093778275 0.31190205
-0.19026011 0.3704781 -0.22270322 0.055301066 -0.16718538 -0.17021492 -0.15992005 -0.10433058
-0.27575806 -0.1459625 -0.16996315 -0.04111798 -0.27606496 0.018324059 0.19345145 -0.3721445
0.1952372 -0.096568644 -0.08464935 0.08777813 -0.18557976 0.20483507 -0.11988138 -0.113944665
-0.36374938 -0.15882944 -0.23427306 -0.17048356 -0.2703737 -0.15277827 0.34202993 -0.0388706
0.043496422 0.35807145 -0.33337298 -0.27853152 0.026246369 0.026947092 -0.20677496 -0.33273163
-0.20378196 -0.04200696 -0.2758855 -0.36738566 -0.20886771 0.33194783 -0.2995537 0.049238775
-0.2600716 -0.070509434 0.2172194 0.0063110925 0.21448201 -0.22894493 -0.23763534 0.09589495
-0.24369329 0.3559418 -0.014473199 -0.25669613 -0.089774586 0.36256573 0.1306429 0.2130135
-0.13921036 -0.07620425 0.36290017 -0.07752166 0.34338817 -0.30568463 0.35471165 0.34640583
0.045721583 -0.10750366 -0.0009884983 0.22254112 0.206938 -0.10153579 0.31821036 0.09309681
-0.012070034 -0.027743923 0.30794722 -0.20812166 0.2983846 0.026013255 0.11317152 0.02514489
-0.1025201 -0.20112112 -0.12460156 0.02505671 -0.17386988 0.080735944 0.14737612 -0.31600308

block1.0.bias f4 [32]
00000000: fe5f 343e b563 403e 763f dcbd a097 9cbe
00000010: 7bea 33be 84b2 74be 0321 9dbc ea72 fa3d
00000020: 10ec 9dbd 533b c5bd d163 8ebd 9619 5cbe
00000030: 01c5 a63e d962 91be afc8 983e d3c3 b7bd
00000040: 34ee 0a3c 10a0 a43d d9de 7c3e e2b3 bcbe
00000050: 4142 bcbc 3a57 893d 7818 713e e598 31be
00000060: a40f aa3e dccc 53be cab5 35be a908 df3c
00000070: 4063 b43e 1505 533e 7e81 0c3e 2b86 aa3e
0.17614743 0.18788035 -0.10754292 -0.3058443 -0.17569916 -0.23896223 -0.01918078 0.12228949
-0.07711041 -0.09630456 -0.06952632 -0.21494135 0.32572177 -0.28395727 0.2984061 -0.089728974
0.008479644 0.08038342 0.24694385 -0.3685599 -0.022980811 0.0670609 0.2354449 -0.17343481
0.33215058 -0.20683616 -0.17745128 0.02722581 0.35231972 0.20607407 0.13721272 0.33305487

convs.0.layers.0.layers.0.weight f4 [32, 32, 3]
00000000: 3aed cc3d 95b3 92bd 3a24 7cbc 8297 613d
00000010: c806 54bd 4bed 3c3d 7132 b53c 5ad7 ac3d
00000020: fb69 053d 6760 a53d 9f70 1dbd fddd bf3d
00000030: 86ab 4dbd 9fc8 233c fbcb 87bc bc09 7fbd
00000040: ec96 583d 4d18 fdbc e9e9 cd3d da34 f33b
00000050: 802c c4bc b5c8 c63d 981d 633a a25d 003d
00000060: f5a2 38bd 0601 a0bd d568 8b3d 5237 41bd
00000070: c1b7 a93d f269 8c3d a416 6a3d 4289 083d
00000080: 31f0 53bc b705 83bd f090 753d 6198 973d
00000090: ec3f 05bd 7883 1c3d 6acf 753d 427b e0bd
000000a0: be77 c0bd 60d3 55bd ddb1 4b3d df6c e03c
000000b0: 72f8 a5bd fc22 41bd 39b2 1fbc 0ee3 a23c
000000c0: 898c ea3d a5a3 c73d c5cd 80bc 55fb dfbc
000000d0: 95f7 f13c ebcc d43d 75b9 2d3d a3a6 4b3d
000000e0: 365f 8a3d d86f afbd d95a 323c 831a 21bd
000000f0: 70e2 323d a15d 913d 7065 733d 46ce 753d
00000100: 5c55 c7bc 5aee 593d 7f34 94bd d95f 66bd
00000110: a7a1 aebd 4580 523d cfa0 b1bd 15cd b93d
00000120: 6105 a63d ed82 c63d 81c3 5fbd 1212 a3bb
00000130: 54c3 5ebd 7a7d b23c 6a6a 7ebc 206f 25bd
00000140: c99f 853d 4401 a1bd 1eb5 52bd f2f0 3ebd
00000150: 70a6 723c ddbc 85bd 455c 8fbd dd50 4f3d
00000160: bd27 df3b 4546 54bd d7ed 403d 9f50 b1bd
00000170: 6491 d8bc 24a6 9a3c 3e71 a63c 2d05 35bd
00000180: 41c5 203d cff3 27bd 8fda 82bd 8f85 ae3c
00000190: bbc8 44bd 4d5d 4abd 24b0 f7bd 1b9a ba3d
000001a0: 4782 b83d 43d8 b23d befb 6ebd 310f 8dbd
000001b0: e2d7 8b3d 1de1 063d 34a7 fb3c e4cb 943d
000001c0: 7dfa 013d 46df 973d 8144 883d 42e6 abbd
000001d0: 5803 56bd 01a1 5abd 4b6f 4c3c 7321 ef3d
000001e0: e7a0 933d 15f4 b33d fd57 5bbc 1510 e0bd
000001f0: 57f8 ccbd 07f4 b3bd e1a5 df3c 64df 71bd
00000200: 80a4 6c3c a9cb 51bd 2284 3fbd 1b60 dbbd
00000210: 7463 603d eea6 68bd 8e54 95bc 91ed 963d
00000220: 5d8f 6bbd 6895 e5bd 013a eabc 17d0 bf3d
00000230: 6e33 ecbc feb2 273d fe08 3ebd 56ef 83bd
00000240: 6174 43bc dadb 03bd 9568 df3d 7e0a 8bbd
00000250: af3b 48bc f150 83bd a8f7 d1bb 696c e83c
00000260: 0015 1bbd 6d65 873c a971 3cbc e8af 4cbd
00000270: ad14 843d df3a 9c3d 66ec 39bd 3c5d 1bbd
00000280: a3e6 8c3c bc60 a93d 72a7 92bc 156c 4abd
00000290: e071 a7bd 454c 183d b37e 053c 8bb1 28bd
000002a0: 1284 4f3d 1a07 5a3d fd73 953b f009 18bd
000002b0: fe2c a1bd 7989 c93d e1d4 29bd be01 773d
000002c0: 2100 233d 8bb4 a1bb c8e5 dd3d ab76 543d
000002d0: 6161 703c ab4b b3bd 5de1 a23c 7e40 90bd
000002e0: f906 863d c32e a53d 78f7 b0bd 3cca e63d
000002f0: 7d45 6fbd 8ad6 1dbb 6b26 c53b 6ed7 923c
00000300: 2620 01bd d681 e5bc 2f9c d2bd 585d abbd
00000310: d2a2 e0bd 4567 05bc 49e9 d7bc daa3 bc3c
00000320: 3bea 953d 9d72 933c 5e01 793c 5c14 55bc
00000330: 49e0 18bd d64e b33d 91c8 3ebc b137 3dbd
00000340: e3fe 5f3d 6aee 473d 0ad7 85bd f52a c73d
00000350: 2681 6f3d 7228 5cbd e5bb 0b3d 9e2a 52bd
00000360: ba71 65bd ccc8 e83b c14a f53d 3c85 893c
00000370: 33f6 27bd dab1 933d 245e 75bd 685f 8d3c
00000380: 346e 103d af9e 193d bc53 02bd 06e4 853d
00000390: ceee 0dbc d608 c2bd 3524 f43c f588 843c
000003a0: fee3 27bc 3d42 87bd a8f3 8d3d 754b 9e3d
000003b0: c445 98bd 94de cbb9 3753 54bd a65c e7bc
000003c0: b2dd d0ba c963 66bc 7ebe 873c a9bf 383c
000003d0: 567f 2ebd 60c5 10bd ab7d be3d db74 063d
000003e0: a5c8 4c3d 65a2 493d 7cb4 60bc 2c34 893d
000003f0: eb04 35bb 5ed5 62bb 9524 243d dc0f d3bd
0.10006185 -0.07163159 -0.015389496 0.05507613 -0.05176428 0.046124738 0.022118779 0.084395126
0.032571774 0.08075028 -0.038437482 0.09368513 -0.050212406 0.009996562 -0.016576758 -0.062265143
0.052878305 -0.030895377 0.100543804 0.007422072 -0.023947 0.097062506 0.00086637726 0.031339295
-0.045077283 -0.07812695 0.068071045 -0.0471719 0.082870014 0.06856145 0.057150498 0.033334024
-0.012935684 -0.063975744 0.059952676 0.07402111 -0.032531664 0.038211316 0.06001226 -0.109610096
-0.09397839 -0.052203536 0.04973017 0.027395664 -0.08104028 -0.047152504 -0.009747081 0.019883659
0.11452586 0.097480096 -0.015723119 -0.027341524 0.029537002 0.103906475 0.042413194 0.049719464
0.06756441 -0.085662544 0.010885918 -0.039331924 0.04367298 0.070979364 0.05942291 0.06001117
-0.024332695 0.053205825 -0.07236575 -0.05624375 -0.085269265 0.05139186 -0.0867325 0.090723194
0.08106495 0.09692941 -0.054629806 -0.0049765194 -0.0543855 0.021788348 -0.015528301 -0.04038918
0.06524617 -0.078615695 -0.051442258 -0.046616502 0.01481019 -0.065301634 -0.07000021 0.050614227
0.006810157 -0.051824827 0.04710182 -0.086579554 -0.026436515 0.01887805 0.02031767 -0.04419439
0.039250616 -0.041004 -0.06389343 0.02130392 -0.048042994 -0.049405385 -0.12094143 0.091114245
0.090092234 0.08732655 -0.05834555 -0.06887663 0.06828286 0.03292953 0.030719377 0.072654516
0.031733025 0.07415633 0.06653691 -0.083935276 -0.052249283 -0.0533762 0.012477706 0.11676302
0.07208424 0.08786789 -0.013387677 -0.109405674 -0.100083046 -0.08786779 0.027300777 -0.059050933
0.014443517 -0.051219616 -0.04675687 -0.1071169 0.054782346 -0.05679982 -0.018228795 0.07369531
-0.05750977 -0.112101376 -0.028592112 0.09365862 -0.028833117 0.040942185 -0.046395294 -0.06442134
-0.011929602 -0.03219209 0.10908619 -0.067891106 -0.012221261 -0.06411923 -0.0064076968 0.028372006
-0.037861824 0.016527856 -0.011501708 -0.049972445 0.06449256 0.07628416 -0.045391463 -0.037930712
0.01719982 0.08270404 -0.01790211 -0.04941948 -0.08176017 0.03718211 0.008147883 -0.041184943
0.05066306 0.05322943 0.004560946 -0.037118852 -0.0786991 0.09840674 -0.041462783 0.060304396
0.039795045 -0.0049348525 0.10834843 0.051870983 0.014671654 -0.08754667 0.019882852 -0.07043551
0.06544299 0.0806556 -0.08640951 0.11269042 -0.05841588 -0.0024084174 0.0060165427 0.01792499
-0.0315248 -0.028016012 -0.10283696 -0.08367413 -0.109685555 -0.008142297 -0.026356356 0.02302735
0.073200665 0.017998988 0.01519808 -0.013005342 -0.03732327 0.08755271 -0.011644498 -0.04619569
0.05468644 0.048811354 -0.06535156 0.0972499 0.058472775 -0.05374951 0.034114737 -0.051310174
-0.05601666 0.007104015 0.11977149 0.016787164 -0.04100628 0.07211657 -0.059904233 0.017257407
0.035261348 0.037504848 -0.031818137 0.06537633 -0.0086628925 -0.094743416 0.029802421 0.016178587
-0.010247229 -0.06604431 0.06931239 0.07729236 -0.07435182 -0.0003888501 -0.051837172 -0.02824242
-0.0015935211 -0.014061877 0.016570326 0.011276164 -0.042601906 -0.03534448 0.09301313 0.032826286
0.049996037 0.049227137 -0.013714906 0.06699404 -0.002762134 -0.003461204 0.04007395 -0.10305759

convs.0.layers.0.layers.0.bias f4 [32]
00000000: 04ea 683d 664f b33c 85a8 5fbd 4ef6 aa3d
00000010: 7608 83bd 9f2d 133d 414c 82bd 4781 8f3d
00000020: 2630 d4bc 21f2 29bd 30f5 a6bd 65be 6fbd
00000030: 0fa1 ac3d 08dd 78bc b0f2 acbd 2c98 68bd
00000040: 4753 9f3d 57c5 563d 67e8 093d a335 f0bc
00000050: 765b 6d3d 9c77 033d cc2c a2bd 7dca bb3c
00000060: e53e a23d 14ad b7bd 6661 be3d 17fa 19bd
00000070: eccb 7e3c c942 c7bd f4e8 9ebd 22a4 a8bc
0.0568638 0.021888446 -0.054604072 0.0834776 -0.06398098 0.03593218 -0.063622005 0.070070796
-0.025901865 -0.041490678 -0.081522346 -0.058531184 0.08429157 -0.015189417 -0.084447265 -0.056785747
0.07779556 0.05243429 0.0336689 -0.029322451 0.057948552 0.03209649 -0.079187006 0.022923702
0.079221524 -0.08968559 0.09295921 -0.03759202 0.015551548 -0.09729535 -0.07759276 -0.020586077

convs.0.layers.0.layers.1.weight f4 [32]
00000000: a750 7b3f b7de 7d3f e432 803f 8e6d 803f
00000010: 2b83 813f a943 7f3f b3d4 813f d5f4 803f
00000020: 037e 7c3f e964 813f c8e6 7d3f d9cd 7d3f
00000030: ee94 7e3f 16bf 803f eb04 7f3f 8615 803f
00000040: c844 7d3f a3d5 803f 7700 803f 5edf 823f
00000050: 695d 7f3f d9f3 803f 899d 7f3f 72f6 813f
00000060: 6429 823f 2fb4 7e3f fc55 7c3f 421c 7f3f
00000070: d94c 813f 0f61 7d3f 4d17 813f 94f0 763f
0.9816994 0.9916796 1.001553 1.0033433 1.0118154 0.99712616 1.0143036 1.0074717
0.9862978 1.010892 0.9918027 0.99142224 0.99446 1.0058315 0.9961688 1.0006568
0.98933077 1.0065197 1.0000142 1.0224416 0.9975191 1.0074416 0.99849755 1.0153334
1.0168881 0.9949369 0.985687 0.99652493 1.0101577 0.98976225 1.0085236 0.96460843

convs.0.layers.0.layers.1.bias f4 [32]
00000000: eed9 8ebc 47fc cb3b a4f7 063d 0a26 6c3c
00000010: bc19 1fbc 04da 283c 7404 223c 7f55 e03c
00000020: a8e5 fa3b 494a 163c a737 ce3c 14d7 863c
00000030: 32f6 263b 2dfa 2b3c 9763 913c ea60 293d
00000040: 3d81 7bbc 60b2 833c 8e95 6e3b 2200 0bbc
00000050: 94d1 b23c 0931 ed3b 794d 683c 7a78 8fbb
00000060: 1593 183d f41c 603c 67fc bb3b 7306 a43a
00000070: ab65 b53d a1d2 14bc 1bf1 2c3d a597 4ebd
-0.017437901 0.006225142 0.032951012 0.014413366 -0.009710725 0.010305885 0.009888757 0.027384518
0.0076567717 0.009172984 0.025173021 0.01645998 0.0025476334 0.010496658 0.017747683 0.04135219
-0.015350637 0.016076267 0.003640506 -0.008483918 0.02182845 0.0072385115 0.014178627 -0.0043783756
0.037249643 0.013678778 0.005736876 0.0012514129 0.08857282 -0.009083421 0.042222124 -0.05043759

convs.0.layers.0.layers.1.running_mean f4 [32]
00000000: df66 113e 3ef7 4a3d f25d e8bd 932f 1c3e
00000010: 6c6a 0fbd a9ed 953d 8bf2 bbbe 1b21 8bbd
00000020: 382e 44bd acaf 2e3e 741e 0ebe 0e5f 64bc
00000030: a562 b3bd 334b 1d3d 7fa3 263d 62c6 22be
00000040: 4cca 253e bc64 143d d9f9 12be 9744 a4bd
00000050: c02a 393d 4b5c c13c 9293 693c a18e ab3d
00000060: 2a32 09bb a8dd 20be 2ced b73e 3ab3 fdbc
00000070: 56b1 9a3d b63f 66bd 5f6f 113d 1b2c 233d
0.14199398 0.049552195 -0.11346044 0.15252523 -0.0350136 0.07320721 -0.36708483 -0.06793424
-0.04789564 0.17059201 -0.13878804 -0.013938678 -0.08759049 0.038401794 0.040683266 -0.1589599
0.16190451 0.03622888 -0.14353122 -0.08020895 0.045206785 0.023603579 0.014256375 0.08376814
-0.002093444 -0.15709555 0.35923135 -0.030969251 0.075533554 -0.056213103 0.035506602 0.039836984

convs.0.layers.0.layers.1.running_var f4 [32]
00000000: 6ebe 853c e0eb 373c b60f 093c cd9d 313c
00000010: b6cd d33c 82bf 5a3c 538f f33b 04d8 563c
00000020: 2905 6f3c 91b9 e93b 236c e43c f645 fe3b
00000030: 3ba4 753c f87a 3f3c 52a0 ad3c 7da5 013d
00000040: a5a5 eb3b 08f0 6a3c 5bc6 f33b b43a a23c
00000050: 0ea3 323c 0ab9 3f3c 76de 713c e3ce 353c
00000060: 4866 3c3c c2bd e83c bfed a93c b139 b83c
00000070: e501 a63b 6381 a93b 47fb b63c cd45 ac3b
0.016326156 0.011225671 0.008365562 0.010840845 0.025854927 0.013351323 0.007432857 0.013113026
0.014588633 0.007132717 0.027883595 0.007759805 0.014992769 0.011687033 0.02119461 0.031651963
0.007191377 0.0143394545 0.0074394173 0.019803382 0.010903133 0.011701832 0.0147625115 0.011096689
0.011498995 0.028410796 0.020743249 0.022488447 0.005066144 0.005172895 0.022336615 0.0052573443

convs.0.layers.0.layers.3.weight f4 [32, 32, 3]
00000000: 544b 613d 4f78 a53d d595 cb3d 44b1 923d
00000010: 6c4d 4dbd 10d1 23bd 67eb c6bd 2582 6b3d
00000020: a2d4 07bd 1fda a6bd 20ca b23d 1eb5 74bd
00000030: 048d adbd b608 b23d a2c8 a23d 2393 cebc
00000040: e667 ccbc dde8 8cbd 6afd 90bd 1d0c a53d
00000050: 37b6 9ebd a9c8 523c 8395 cc3d 3a09 c9bd
00000060: ba75 003e 8d9c bf3d 7ab4 563d 61f9 30bd
00000070: ac1b 183c b209 a33d 48c9 12bd 181a 81bd
00000080: 7131 65bd b3f9 4b3a 4735 98bd 5f06 87bd
00000090: 6ee4 97bd 2861 54bd fbe8 c13d bfbb debc
000000a0: 5d8d fb3c 1a42 b93d d650 8bbd 0bb8 adbd
000000b0: 076d d63c 76be 133c d46b f03c 85c5 87bd
000000c0: cb05 153d 5976 96bd b3c3 90bd 87b2 93bd
000000d0: b4fe 863d a1aa aabd 31ba 97bd 64ed c23c
000000e0: 0545 963c 0d33 dc3c cc5f 253c 9da9 713d
000000f0: 1285 abbd be09 bcbd 3ded a33d bb02 e23d
00000100: aa11 453c affc 683b 79c4 d03d 7307 703d
00000110: 46c7 a73d e386 8dbd 1f62 673d d514 d73d
00000120: 84f5 26bd 6fe3 f53d 6e6f 03bc adb3 953d
00000130: 63ae 683b c9b6 db3d 4206 4b3d ec7e 38bd
00000140: 11d2 bd3c d0c1 5fbc 4052 35bc 0816 83b8
00000150: 3639 9338 68a8 803c 4ca2 11bd a10b c0bc
00000160: c8c8 44bd 33eb 553d e9fa 873d bcab 8ebd
00000170: 376d ab3d aceb 80bd 16ca 473c 72f2 7f3d
00000180: f61f 263d 8b1d f93c 8986 cbbc cd4e b5bd
00000190: 2c11 113d 067d 72bd 4a14 a83d ec70 af3d
000001a0: 0452 3b3d cf76 24bc 8120 a7bd 45b9 64bd
000001b0: 82f5 433d 9a89 933d 0bfb cf3c 031f afbb
000001c0: ba14 4a3c 918e 55bd e9c7 603d b584 783d
000001d0: 7a9e 553c 8b55 9bbd 7c64 bb3c b72b bdbd
000001e0: b6b4 983d 0d64 5ebd a31f 84bd 72bf d23b
000001f0: ffcb 033c 67e4 fa3c 2c2d 59bd 6abd e43c
00000200: 396c 8dbd c891 acbd 8dc2 75bd 0f5d 8f3d
00000210: acf8 e3bc 2851 b8bd 9227 9dbd b29f b0bc
00000220: d314 273b 1e44 353c e8ec 893d 125d 3abd
00000230: d051 713d 9f9c 7bbd a9a4 94bd 57e9 ac3d
00000240: cab6 6ebd 3955 133d 4bf6 a1bd 5412 a43d
00000250: 9eeb 753d fe35 9d3d d217 c4bd 1ccf 98bd
00000260: 8c8b 19bc 51e6 8cbd 9993 1bbd 3ecb 883d
00000270: 1ead d93c 4e13 e63c 32a5 d43c b81a a9bd
00000280: 615d 77bd c74b c4bd 6f9f 30bd 4c5c a33d
00000290: 1865 49bd 29f6 8dbb a391 0bbc cfc2 983c
000002a0: bded d0bc 7f12 8d3c 95ce 69bc cb42 0fbd
000002b0: 81c7 b1bd 1df5 823d cfa1 663d 37b3 b43c
000002c0: dc89 a63d 9cb1 e63b fdf0 9dbd 4b6e 113d
000002d0: d517 b4bd 1326 bbbd 91ea c2bd 8500 93bd
000002e0: db31 743d 97cc 8cbd aebf bdbd 02e5 9e3c
000002f0: 7f57 e1bc ecbc 893d bf9b d9bc 6d71 59bd
00000300: 26cd 8b3d d902 083d 040c 863d dc32 503c
00000310: a14d b0bc d007 5d3c ec8c cc3c 729a 3fbc
00000320: 6cb8 873d b53f 3b3d 93c5 b73d 69ef 363d
00000330: 1c89 2c3d ae1b bb3c 325d 763d 68f6 d6bd
00000340: 390d 4dbd 4c6f 14bc 419a 95bd cc82 0dbd
00000350: e722 d1bb 5ca1 edbb 1346 653d 9ad3 8ebd
00000360: 495e a1bd 6542 e4bd af6d 6a3d 44c9 94bd
00000370: 0708 b4bd 64aa cfbd 6d24 6f3d 8faf 9c3c
00000380: 667a 87bd 350f ecbc 332d aebd 1626 b8bd
00000390: 2e5e 4cbc 7900 6cbd 3fa0 393d c196 823c
000003a0: 8655 0abd b400 41bd 02ff d8bd 9607 97bd
000003b0: b54c 69bd 75d2 babc 5ec2 a6bd f249 8fbd
000003c0: 15b1 5cbd 9758 e3bd d082 4cbc de7a 4a3d
000003d0: bc2d ee3d 4f7d 1cbc 0ba0 883d 230c 09bd
000003e0: a421 963d 0b9a 62bc 6f63 0b3d f36c a23c
000003f0: 2389 7abd c844 73bd 6142 e73c db70 d0bd
0.05500348 0.08079588 0.099406876 0.07162717 -0.050122663 -0.0399943 -0.09712868 0.057497162
-0.033161767 -0.08147072 0.087299585 -0.05974304 -0.08474162 0.08693068 0.07948424 -0.025216645
-0.024951886 -0.06880353 -0.07079585 0.08058951 -0.077495985 0.012865224 0.099894546 -0.09816213
0.12544909 0.093560316 0.05241821 -0.043206576 0.009283941 0.079608336 -0.035836488 -0.06303805
-0.055955354 0.00077810435 -0.07432037 -0.06593012 -0.074166164 -0.051850468 0.094682656 -0.027189134
0.030707056 0.09045811 -0.068025276 -0.08482369 0.026175035 0.009017577 0.029348291 -0.06629471
0.036382478 -0.07346792 -0.07068577 -0.07211786 0.065915495 -0.08333326 -0.0740856 0.023794837
0.018343458 0.026879812 0.010093641 0.058999646 -0.083749905 -0.09181546 0.08004234 0.11035677
0.012028137 0.0035551002 0.10193724 0.058600854 0.08192305 -0.06910493 0.05649006 0.1050202
-0.040761486 0.1200627 -0.008022172 0.07309661 0.0035504333 0.10728223 0.049566515 -0.045042917
0.023171457 -0.013657048 -0.011066973 -6.2506704e-05 7.0201626e-05 0.015705302 -0.03555517 -0.023443045
-0.048043042 0.052226257 0.06639654 -0.069663495 0.083704405 -0.06294951 0.012194177 0.062487073
0.040557824 0.030409595 -0.024844425 -0.08852921 0.035416767 -0.059201263 0.08206995 0.0856646
0.045732513 -0.010038092 -0.081604965 -0.05584075 0.047841556 0.0720398 0.025388261 -0.005344273
0.012334043 -0.052137915 0.05487815 0.060673434 0.013038272 -0.075846754 0.022875063 -0.092368536
0.07456343 -0.054294635 -0.06451347 0.0064315135 0.008044242 0.030626489 -0.053021595 0.02792235
-0.069054075 -0.08426243 -0.05999999 0.070001714 -0.027828537 -0.08999854 -0.07673563 -0.021560524
0.002549459 0.011063604 0.067346394 -0.045498915 0.058915913 -0.061428662 -0.07257969 0.084429435
-0.05827979 0.035969947 -0.07908305 0.08011308 0.060039155 0.07676314 -0.09574856 -0.07461378
-0.0093716495 -0.06879867 -0.037982557 0.0667939 0.026571807 0.028085377 0.025957678 -0.08257049
-0.060391787 -0.09584766 -0.043120798 0.079765886 -0.049168676 -0.004332323 -0.008518609 0.01864758
-0.025503987 0.017220734 -0.014270444 -0.034975808 -0.086806305 0.06394408 0.056306656 0.022058113
0.08131763 0.0070402157 -0.077119805 0.035505574 -0.08793608 -0.091381215 -0.09517396 -0.071778335
0.05961786 -0.0687496 -0.092650756 0.019396309 -0.027507542 0.06725487 -0.026563523 -0.053086687
0.06826238 0.03320584 0.065452605 0.012707438 -0.021521391 0.013490632 0.02496954 -0.0116945375
0.066269726 0.045715053 0.08973231 0.044661913 0.042122945 0.022840347 0.06014747 -0.10496217
-0.05006144 -0.009059738 -0.07304812 -0.034548566 -0.0063823345 -0.0072519016 0.05597503 -0.069739535
-0.078793116 -0.11145476 0.05723351 -0.07264951 -0.087905936 -0.10139921 0.058384348 0.019126682
-0.066151425 -0.028815845 -0.08504715 -0.08991639 -0.012473626 -0.05761764 0.04531884 0.015941026
-0.033772968 -0.04711981 -0.10595514 -0.07374494 -0.05695792 -0.022805432 -0.08142541 -0.06996526
-0.053879816 -0.111008815 -0.01248236 0.04943358 0.11629817 -0.00955136 0.06671151 -0.03345884
0.07330635 -0.013830672 0.034030374 0.019827342 -0.06116594 -0.059391767 0.028229894 -0.101777755

convs.0.layers.0.layers.3.bias f4 [32]
00000000: af50 593d 5e86 753d 1775 a4bc 0b08 d0bc
00000010: c312 4fbd 7655 f3bc 7f1a 01bd ac34 ba3d
00000020: 1e37 1ebd 4f55 a13d 3042 d6bb fdb2 d33c
00000030: bb9a 243b 459e 86bd 3061 133c 3455 41bd
00000040: eec6 babd aa40 463d e652 b63a d26e 50bc
00000050: cdec d53c cfda 8e3d e0bb ae3d 3294 313d
00000060: 867e 833c e6a4 a9bd c807 b23d fdea a73c
00000070: 3b20 ae3d 5d32 9d3b 48ab a3bd 5158 74bc
0.05305546 0.059942596 -0.020075364 -0.02539446 -0.050555002 -0.029703837 -0.03151941 0.090920776
-0.038626783 0.078775994 -0.006538652 0.025842184 0.002511664 -0.06573156 0.008995339 -0.047200397
-0.09119974 0.048401512 0.0013910204 -0.012721734 0.026113892 0.06975328 0.08531928 0.04335422
0.016051542 -0.08283405 0.086928904 0.020497793 0.08502241 0.0047972635 -0.07991654 -0.014913634

convs.0.layers.0.layers.4.weight f4 [32]
00000000: bda3 7b3f b7aa 813f 8376 803f 5890 7f3f
00000010: c1a6 7d3f 3367 7f3f a377 803f 309c 813f
00000020: 61a5 803f 9da3 813f c560 7c3f 4b51 813f
00000030: 56f9 803f 8482 803f 3ccd 7d3f 6a13 793f
00000040: e25a 803f f2e7 7d3f 0f05 813f 6b1b 823f
00000050: bfdb 823f f955 803f 3afd 7c3f 5382 803f
00000060: 6f34 7e3f e762 7c3f 3970 793f 8a4b 813f
00000070: f59c 7a3f 89a5 7f3f fb25 7d3f 131d 7d3f
0.9829672 1.0130223 1.0036167 0.99829626 0.9908257 0.99766845 1.003651 1.012579
1.005047 1.0128056 0.9858516 1.0102934 1.0076091 1.003983 0.9914129 0.9729525
1.0027735 0.99182045 1.0079669 1.0164617 1.0223311 1.0026237 0.98823893 1.0039772
0.9929876 0.98588413 0.97436863 1.0101178 0.9789575 0.9986196 0.9888608 0.9887249

convs.0.layers.0.layers.4.bias f4 [32]
00000000: 8aa3 83bc 01fc 9f3c bab2 8c3c 6bda 06bc
00000010: cad3 78bb c2a3 c23b 3e08 8a3c 1b3b 073d
00000020: 5102 783b afcf 0c3c ccce bfbc 84ac 8a3c
00000030: 3aa3 333c 7967 a73c 130a 83ba a265 d5bc
00000040: 9bca 7f3c 4b0a 30bc 3385 7e3c d825 243c
00000050: 32e8 f33c e770 65bb f087 5bbb 2ee1 34bc
00000060: e836 27bc 097d 3fbb f80d bebc 7019 903c
00000070: cb28 14bc 1685 aebb c7b7 b3bb 883f 25bc
-0.016069192 0.019529345 0.017175067 -0.008230786 -0.0037968033 0.0059399316 0.016849633 0.03301535
0.0037843178 0.0085944375 -0.023414038 0.016927965 0.010964209 0.020435082 -0.0009997509 -0.026049439
0.01561227 -0.010744642 0.015534687 0.010018788 0.029773805 -0.0035009922 -0.0033497773 -0.011040015
-0.010205962 -0.0029218814 -0.02320002 0.017590255 -0.009042929 -0.0053259237 -0.0054845545 -0.010085948

convs.0.layers.0.layers.4.running_mean f4 [32]
00000000: da6a 603e d695 9cbe 0504 cebe 9023 fabe
00000010: 0221 d43e 1a66 e6be 385d eabe 06ed 413b
00000020: 5f6e b73d 1063 d9be f09c b63e 83dc 3d3f
00000030: 8c0f 94bc 5c23 6dbe 788c 023f 5bd0 c13e
00000040: efc5 cabe 2970 50bd 47e7 9bbc 8497 f3be
00000050: db25 86be 1bbb 963e 1473 a2be 961d 643e
00000060: e6ff e03e 8d95 933e 50d8 f43d 7aba fcbe
00000070: e7e7 1d3e 866d 8dbe 3ad1 7d3e e2b0 143e
0.2191576 -0.30583066 -0.40237442 -0.48855257 0.41431433 -0.44999772 -0.45774245 0.002959074
0.089565985 -0.4245839 0.3566661 0.741646 -0.01807382 -0.2315802 0.5099559 0.37854275
-0.39604136 -0.050888214 -0.01903118 -0.47576535 -0.26200756 0.29439625 -0.31728423 0.22276911
0.43945235 0.28825036 0.11955321 -0.4936102 0.15420495 -0.27622622 0.24786845 0.145206

convs.0.layers.0.layers.4.running_var f4 [32]
00000000: 62a1 633e 9a7a ea3e 6a5a e43e 70de a73e
00000010: 5952 1f3e af0c c83e 641c f73e 1067 c03e
00000020: 9632 0c3e f57c 033f f299 503e 4abb b43e
00000030: e26c 9f3e 03ce d43e 02e6 5e3e 2dbc 333e
00000040: 4b14 953e 2213 3b3e 5bd2 103f fb9d 763e
00000050: c7ef b43e 588e 0f3e fcf6 713e a337 a53e
00000060: 6f59 363e ef80 1e3e 1241 8a3d 55de c33e
00000070: 7047 fd3d 2c57 1a3e 819a dd3d 0fb1 863e
0.22229531 0.45796663 0.4460023 0.32786894 0.15558757 0.39072177 0.48263848 0.3757863
0.13691172 0.51362544 0.20371225 0.3529914 0.31137758 0.41563424 0.21767429 0.17552252
0.29117045 0.18269017 0.56570977 0.24083702 0.35339186 0.14019144 0.23629373 0.3226901
0.17807554 0.15478872 0.067506924 0.38255563 0.12367141 0.15072316 0.10820485 0.2630696

convs.0.layers.0.down_sampler.weight f4 [32, 32, 1]
00000000: 38ea 8c3c b28d c1bb 1883 3ebd d67e c6bd
00000010: 0b99 36bd 4e91 94bd f87b aabd b317 253d
00000020: d8cf d5bd 3045 d03d 8731 303e 9c1c 3c3d
00000030: a6ca 1cbe 40a1 31bd 7c0b e9bd 44ee 143e
00000040: ff4a 1fbe 27db e13d 99b0 ea3d 5c3e 97bd
00000050: 03db 803d aa17 98bc 16b8 1d3e e134 59bd
00000060: 725a 27be 2f4d 1fbd dbff 8abd 0a0c 113d
00000070: f900 27be d014 eb3d 0ef6 803c 0046 983c
00000080: ccc6 3f3d 715b 30be 49f3 eb3d 2b18 4a3d
00000090: cfa6 8cbd 843c 433d 2555 b6bb 3609 cd3c
000000a0: cf6b f4bd 9a73 7ebd fdf4 babc 7048 ce3d
000000b0: 24f2 c5bc 85bf d3bd 226c 26be 6b45 913d
000000c0: 731b 15be 76da 073d 0fd7 2f3e 7530 26be
000000d0: d63d 0dbe fa39 20be 31ae 5b3d ee6e e5bb
000000e0: 2033 2d3e 81fe 20bd 5532 bebd 6db7 fcbd
000000f0: 24ad 353e 2c06 1ebe f84e 1abe 7cd0 38bd
00000100: 4083 323d 5e2f bebd 34d0 b93c 7b5b 03bc
00000110: c48e 2cbd af87 9e3d fe9d 94bd ca3f a13d
00000120: fe3e e63d b9ef 183e 2760 17be ed16 80bd
00000130: 7913 383d e098 14bc f874 2bbe d538 58bd
00000140: d4df 273d 1223 17bc 18fa 263c 4030 e7bd
00000150: 3150 1bbe d346 1c3e a670 243e 06d0 093e
00000160: 7721 dabc 19ae babd f190 33be 0b45 4d3d
00000170: 5ab4 153e aeed 23bc 5ab3 f13d 2c61 2bbe
00000180: bfb2 07be ac39 fdbd 9955 a8bd dc0d 453d
00000190: 3b9c 0f3e fc9d d73d f108 b73d c312 133e
000001a0: e4ba d33d 17c6 973d 14e4 cdbd 0ef6 27be
000001b0: 62d5 12be 8518 c03c 19d2 203d 5992 153d
000001c0: ae9f a6bd 5fbe 8dbd b38a 9abd 579d 6f3d
000001d0: e6ad 213e 2687 2a3e fcff fcbd 7154 8bbd
000001e0: 0cb8 fa3d a997 f13c 66a6 f13d e1d2 143e
000001f0: ce43 d5bd b13d e7bc 8b5f 583d b9cc 7f3d
00000200: aa4e bebc 5491 e5bd 2e0d c43d 83cf afbd
00000210: e4cd 96bd 8a83 ec3c 80aa 04be f5e3 06be
00000220: 9d99 ffbd 2297 8d3d c6de c53d 0d4d 2b3e
00000230: 26ac 26be 3f2a 0d3c e0ad d8bd 5338 f1bd
00000240: 6006 81bd f800 153e 5406 b53d 322f 28bc
00000250: 025d 303e e91c 073e 17db 313e 5743 05be
00000260: 5f21 113e aff3 cabd b521 2c3e cd0b 7e3c
00000270: 7ef9 66bd f256 123e 46b5 c83d c2a9 c7bd
00000280: 6205 f8bc ed36 03bd 9c43 4fbd 6301 20be
00000290: 1e98 1b3d 2d97 96bc d6a1 14be f12a e1bd
000002a0: baeb 0b3b 4790 26be ec88 bc3d c999 70ba
000002b0: a29c ed3d 42bd dc3d 9269 2e3e 817d 203d
000002c0: a0a5 febd 0bf7 d9bd 9f37 0a3e b512 4abc
000002d0: 5a1c 56bc ff6e d03d a2a6 163d a819 a2bd
000002e0: 7075 733c d297 03be 5942 00bd 2ee5 0bbe
000002f0: d1da eb3b 8e6f ec3c 3028 8fbd e2e5 ed3d
00000300: b738 ad3b 5551 2bbe 3796 1abe 539a 86bd
00000310: 0c20 da3d 737d b9bd 66b8 a3bd 8070 073c
00000320: 691c 9f3d 9a68 10be 7616 06bd bb29 d13d
00000330: 40c2 ba3c 7be5 243d 008d 083e 007a 74bd
00000340: 9e85 2b3d 1704 b13d 2174 be3d 190f 1dbe
00000350: 575b 18be 2548 80bd ebaf 16be 6625 22be
00000360: 38b3 da3c b53c 903d 8edf bdbd df99 063e
00000370: d5e6 b73d 8176 373e 6d94 c0bd f1f6 08be
00000380: 67fa 3c3d 89bd 0c3d 222a a73d f9f3 933d
00000390: e689 20be 7dae 07be 7392 073d e3d0 ddbd
000003a0: cc50 563d ac93 313e d1f4 f33d 1235 2bbe
000003b0: 91bf 7d3d ea1d e4bb 06bb b83d f794 243d
000003c0: 176a 263d ed4a 353e 1796 0b3e 150c 38be
000003d0: f793 e63d 0ec7 2fbe bed1 b8bc d163 88bd
000003e0: 5bf6 f6bd 0434 463d edf4 7e3d 1d69 d5bd
000003f0: 965d 57bc 2b61 77bd cbdd 623b e99a 003e
0.017201528 -0.005906784 -0.04651174 -0.09692161 -0.044579547 -0.07254277 -0.083244264 0.040305804
-0.10440034 0.101694465 0.17206393 0.04592572 -0.15311679 -0.04336667 -0.113791436 0.14544016
-0.15555952 0.11028128 0.114594646 -0.07384941 0.06291773 -0.018565971 0.15402254 -0.053028945
-0.16343096 -0.038891967 -0.06787082 0.035411872 -0.16308965 0.11478579 0.015742328 0.018588066
0.046820447 -0.17222382 0.11521012 0.049339455 -0.06867754 0.047665134 -0.0055643492 0.025028806
-0.11934625 -0.062121965 -0.022821898 0.1007241 -0.024163313 -0.10339264 -0.16252187 0.070933186
-0.14561252 0.033167325 0.17171882 -0.16229422 -0.1379312 -0.15647116 0.05363292 -0.0070017492
0.16914034 -0.039305214 -0.09286944 -0.12339673 0.17741829 -0.15432042 -0.15069187 -0.0451207
0.0435822 -0.09286378 0.022682287 -0.008017416 -0.04212834 0.07740723 -0.07256697 0.07873495
0.112424836 0.14935197 -0.14782773 -0.06254373 0.044940446 -0.009069651 -0.16743839 -0.052788574
0.040984944 -0.00922467 0.010191463 -0.112885 -0.1516731 0.15261392 0.16058597 0.13458261
-0.026627285 -0.09115238 -0.1753576 0.050114673 0.1461958 -0.010005398 0.11801787 -0.16736287
-0.1325178 -0.12364516 -0.082194515 0.04810892 0.14024441 0.1052818 0.08937252 0.14362626
0.10338381 0.074108295 -0.10053268 -0.16402456 -0.14339212 0.023449192 0.039262865 0.03651652
-0.08135925 -0.06921076 -0.07545986 0.05849966 0.15788993 0.16653118 -0.12353513 -0.06803215
0.122421354 0.029491263 0.11799316 0.14533569 -0.10413323 -0.028227659 0.052825492 0.062451098
-0.02323087 -0.1120936 0.09572826 -0.085845016 -0.07363489 0.028871316 -0.12955666 -0.13172896
-0.12480471 0.06913592 0.09661631 0.16728611 -0.16276607 0.008616029 -0.10580039 -0.11778321
-0.06300044 0.14551151 0.088390976 -0.0102651585 0.1722298 0.13194622 0.17368732 -0.1301397
0.14172886 -0.0990976 0.16809733 0.015505743 -0.056390278 0.1429098 0.098002 -0.097491756
-0.030276004 -0.032034803 -0.050601587 -0.15625529 0.037986867 -0.018382633 -0.1451486 -0.109945185
0.002135022 -0.16265975 0.09205803 -0.0009178189 0.11602141 0.107782856 0.1703246 0.03918219
-0.12433934 -0.10642823 0.1349778 -0.012333562 -0.013068283 0.10177421 0.036780007 -0.0791505
0.014859542 -0.12850884 -0.031313274 -0.13661644 0.007197716 0.028861787 -0.06990087 0.11616112
0.005286302 -0.16730244 -0.15096365 -0.06572404 0.10650644 -0.09057131 -0.079941556 0.008266568
0.07769091 -0.14102402 -0.032736264 0.102130376 0.022797704 0.040257912 0.13335037 -0.05968666
0.041875474 0.08643358 0.092994936 -0.1533779 -0.14878593 -0.062637605 -0.14715545 -0.15834579
0.026696786 0.07042829 -0.09271155 0.13144635 0.089795746 0.179163 -0.0940331 -0.1337545
0.04613724 0.034360442 0.08162333 0.072242685 -0.15677604 -0.13250156 0.03309865 -0.108308576
0.052323148 0.17341489 0.119119294 -0.16719463 0.06195027 -0.006961574 0.09020047 0.040181126
0.04062852 0.17704363 0.13631473 -0.17973359 0.11258691 -0.17165777 -0.02256095 -0.066596635
-0.12058707 0.04838945 0.0622453 -0.104204394 -0.013144871 -0.0603954 0.0034617062 0.12559094

convs.0.layers.0.down_sampler.bias f4 [32]
00000000: c6da 2a3e 4c97 10be 3e65 bc3d f207 1f3e
00000010: 553b b5bd f804 0fbe 138c a1bd e935 c13d
00000020: 39fa aa3d 297d 24be 0903 0fbd b2c5 05bd
00000030: 1c4e 273c dd20 c93b 412a 67bd 9bdb 383d
00000040: 7fa7 8b3d 63ec 213e 5924 30be 4b96 45bd
00000050: bd9a 883d 1244 ba3c 811e 0fbd e3fa 32be
00000060: f024 b23c c613 273e 30a8 2d3e 5253 683d
00000070: 65e2 b53d a9cf 253d 69d9 b33c 09e7 27be
0.16685018 -0.14120215 0.09198998 0.15530375 -0.08849207 -0.13966739 -0.07888045 0.09434111
0.083485074 -0.1606337 -0.034915004 -0.03265924 0.010211494 0.006137951 -0.05643678 0.045131307
0.06819057 0.1581283 -0.17201366 -0.048239034 0.06670139 0.022737537 -0.0349412 -0.17478518
0.021746129 0.16316137 0.1695869 0.056720085 0.08881072 0.040481243 0.021954255 -0.16396727

convs.1.layers.0.layers.0.weight f4 [32, 32, 3]
00000000: 5b0b a23d fbac a4bc 856d 383c 8830 4cbd
00000010: e05f 3dbd 7bf3 97bd 27ac 4bbc 564e fb3a
00000020: d684 0f3d 8379 203d 76b4 353d bc18 183d
00000030: b39b b63c bca0 993d f216 bf3d 14db 8dbd
00000040: 3ec3 b4bd e0f2 243c 94a3 fcbc 75fc 8f3d
00000050: f66d a6bd 8b83 e33c cba1 e73c d434 b53d
00000060: cdb6 903c 8bfd 4bbd c740 9ebc 6cb8 423b
00000070: 2ad7 fcbc 2bbd f9bc 6ba7 dd3b 7ef1 1ebd
00000080: 69a9 babd e69f 62bd fa00 b3bd 4f16 84bc
00000090: 48d2 7dbd fec1 383d 8e2b b8bd 2e86 09bd
000000a0: a158 953d 3660 bdbd 30d1 c33b 2847 13bc
000000b0: e295 71bd 3d57 d63c f5fd 2e3c b721 a53c
000000c0: 0cd2 c83d 78e4 953d c23a 25bd 978c 9e3d
000000d0: 5102 2f3d 924b 1cbc 071d 643d b652 bc3d
000000e0: 7042 a63c e679 453d fcd5 883c 1995 93bd
000000f0: b730 403d 0ad9 e73c b076 30bc b740 2a3d
00000100: c50d b5bb 2334 8abd 7b91 d43d dd7a 23bd
00000110: 702a 5fbd 2a25 4e3d 02fc 03bc 6668 ac3c
00000120: 0c7c 073d 0ed3 9b3d 21c6 af3c 0faa db3c
00000130: 29ae c5bc ea3e c4bd 5d5f 9d3d 02d9 8bbd
00000140: 14b1 98bd 4ca6 a0bd c389 b63c b3f0 163c
00000150: 1d1c 88bd 3187 2f3d 9176 09bd 03ef 88bd
00000160: 2746 a4bd fd1d 45bd 592c ba3d c1c8 bb3d
00000170: 95d6 76bd 7f96 af3d 2659 debc 5ada afbd
00000180: c85e 8fbd 3d7f ac3d 47b6 b4bb ad78 3ebd
00000190: bdeb ccbc 4ea6 ec3d 4766 663d d8f1 a93d
000001a0: 0999 df3d ea1d 623d c7f9 1dbc a60e 69bd
000001b0: 9f42 ce3d f6c8 d23d 5357 c3bb 705f ee3c
000001c0: cb28 82bd f664 01bd e6bb 933d 3b3b cf3d
000001d0: 718a c53d fbba a6bc 1d61 c83d 4109 4f3d
000001e0: 8097 1e3d 3da7 85bd 6b5c 79bd 06dd 573c
000001f0: 0998 543d d89b 563d 5e3a b23d c77e ae3c
00000200: b8c2 c93c ad67 86bd 2894 e73b a6a7 ee3c
00000210: 36a0 573c dfa3 9d3d 305d 74bd 7681 8e3d
00000220: 7912 153d 146c fabc 6f03 49bb a2d8 bb3d
00000230: fb4e 86bd 5068 b83c 0f38 9cbd 748d 7cbd
00000240: 1628 c23c 0d63 3ebc d3da dd3d e32c a13d
00000250: a37f 913d 3a3f 8cbb 80f1 c2bd 60a5 a8bc
00000260: 4ab1 0abb 3456 9d3d 6fab 1dbc b922 94bd
00000270: ef0a dc3c ca75 f1bc fdd3 673d 74f0 af3b
00000280: 2bf9 733d 9d4d e3bc a649 78bd e71a 6e3d
00000290: 5c99 b13d ab31 b2bd 8e0a 82bd 060d babc
000002a0: 3272 cd3c baba c6bd 6ad2 cc3d 93df dfbb
000002b0: f47b afbd 2e07 913d 41da 99bb 5b98 fa3c
000002c0: 3c8f a93c 0529 bebd feb6 ce3d eb28 66bc
000002d0: e437 97bd d51f aebd 30fb a73d 4c4d 333d
000002e0: 2f8d ce3d 17cb ac3d 52f1 9e3d ddea fc3c
000002f0: e968 85bd bfc5 a9bd 5262 21bd 468d aebc
00000300: 1da4 4bbd 4663 ad3d f08f dd3c dfe7 bdbd
00000310: 0ac0 bc3d 2dd0 8e3d 494b a6bd b6a1 96bd
00000320: df19 52bd bcdd 2e3d effc 2bbd a93f 70bd
00000330: 6e7f 893d a5b3 223d 0270 333d 8054 dc3d
00000340: 6467 c1bc 0b26 8e3d a2c2 67bd edd1 aabd
00000350: aa59 5a3d c650 4e3c 04f9 cabd c0d6 54bc
00000360: 9d62 e23b d402 873d d644 3b3d 2bb2 3d3d
00000370: 561f c1bd f230 bfbd 7efe 4d3c c2c3 22bd
00000380: 56de 22bd db1a 763c b412 b3bd 8f20 4f3d
00000390: 29ea ab3d ea81 733a 8f8e f3bb 349b 093d
000003a0: e28b 6abd 74f1 07bd b426 043c 3cc2 ef3c
000003b0: e88a 84bd 8bd9 b9bc dfd1 383d 2fe8 83bc
000003c0: df4b 18bd 4f36 c73d ac29 683d 5fa6 6e3d
000003d0: 9bda d6bc be43 5bbd fe11 bf3d d98f 163d
000003e0: eb81 573c af9f 4abb 52b5 98bd 6b5e 923d
000003f0: 216c 3dbd e7c7 0bbd 9866 7abd 7fbd 95bd
0.07912322 -0.020102015 0.01125658 -0.04985097 -0.04623401 -0.07419487 -0.012431181 0.0019173126
0.03503879 0.039178383 0.044361554 0.037132964 0.02229104 0.07501361 0.09330548 -0.069265515
-0.08826302 0.010067672 -0.030839719 0.07030574 -0.08126442 0.027772686 0.028275391 0.08847967
0.017665291 -0.049802344 -0.019317998 0.0029711975 -0.030864317 -0.03048571 0.0067643425 -0.038804524
-0.09114344 -0.055328272 -0.08740421 -0.016123919 -0.061968118 0.04510688 -0.089926824 -0.03357523
0.07292295 -0.092468664 0.005975865 -0.008989133 -0.05898083 0.026164645 0.010680665 0.020157678
0.09805688 0.073189676 -0.04033924 0.07741659 0.04272682 -0.009539502 0.055691745 0.09195463
0.020295352 0.048211955 0.016703598 -0.072061725 0.046921458 0.028301734 -0.010770485 0.041565623
-0.005525323 -0.067482255 0.10379311 -0.039912093 -0.05448383 0.05032841 -0.008055689 0.021045875
0.033077285 0.07608615 0.02145678 0.026814489 -0.024130898 -0.095823124 0.07684205 -0.068285
-0.0745565 -0.078442186 0.022282487 0.009212661 -0.06645987 0.042853538 -0.03356034 -0.06686213
-0.08021193 -0.048124302 0.0909049 0.0916915 -0.060263235 0.08573627 -0.027142119 -0.08586569
-0.070005 0.08422706 -0.005514893 -0.046501804 -0.025014753 0.115551576 0.056249883 0.08298081
0.10917861 0.05520431 -0.009642071 -0.056898735 0.10071301 0.102922365 -0.0059613376 0.029098243
-0.06355437 -0.031590424 0.07213573 0.10118719 0.09645546 -0.020352831 0.09784148 0.050545935
0.0387187 -0.06526039 -0.060879152 0.013175255 0.051902805 0.052394718 0.08702539 0.021300687
0.024628982 -0.06562743 0.007067222 0.029132675 0.013160756 0.076972716 -0.059659183 0.069582865
0.03639457 -0.030569114 -0.0030672213 0.09172179 -0.06558033 0.022510678 -0.0762788 -0.061658338
0.023700755 -0.011620295 0.10832753 0.078698896 0.07104423 -0.004279998 -0.09518719 -0.02058667
-0.0021162801 0.076824576 -0.0096233925 -0.07233185 0.026860682 -0.029475112 0.056598652 0.0053692404
0.059563797 -0.02774697 -0.06061711 0.058131125 0.08671829 -0.0870088 -0.063496694 -0.022711288
0.025078867 -0.09703584 0.10001071 -0.006832072 -0.08568564 0.070814475 -0.0046952073 0.030590227
0.020698182 -0.092851676 0.10093497 -0.014047842 -0.07383707 -0.08502165 0.08202207 0.043774888
0.100855224 0.08437174 0.07760872 0.03087371 -0.06514151 -0.0828967 -0.039400406 -0.021307599
-0.049717057 0.084662005 0.027046174 -0.092727415 0.09216316 0.069733 -0.08119828 -0.07355063
-0.051294204 0.04269193 -0.041989263 -0.05865446 0.067137584 0.039722104 0.04380799 0.107583046
-0.02360887 0.0694085 -0.0565821 -0.083408214 0.053308167 0.0125925 -0.09910777 -0.0129906535
0.0069087283 0.06592336 0.045719944 0.046312492 -0.09429805 -0.093355075 0.012572883 -0.03973747
-0.039762817 0.015021051 -0.08743802 0.05056816 0.08394272 0.0009289073 -0.007432766 0.03359528
-0.05726231 -0.033189252 0.008065868 0.029267423 -0.06471807 -0.02268674 0.045122024 -0.016101925
-0.03718173 0.097271554 0.056680366 0.058264133 -0.026227286 -0.0535314 0.093296036 0.036758278
0.013153533 -0.0030917933 -0.07456459 0.07146915 -0.046245698 -0.03412619 -0.061132997 -0.07311534

convs.1.layers.0.layers.0.bias f4 [32]
00000000: ca0b ca3d c36d 79bd a07b cd3d 0591 86bd
00000010: a439 1a3d 5104 d0bd 6e31 90bc 2c0b bd3d
00000020: da26 153c f3f9 a4bc f793 c43d 9237 a5bd
00000030: 6bca b5bd 9e6a 40bd 8e16 493d 9033 a63c
00000040: 59ed 2d3c f99c 5abc 5bca 1e3d 9e5e 193c
00000050: 9f02 6bbd bbaf 5e3d 802d 7e3d ee84 073d
00000060: b52a bdbd e9be fe3b e143 46bb a4fb 9bbd
00000070: bba1 b23d 44a3 803d 79d6 ab3d 3e61 983d
0.0986553 -0.060895693 0.10033345 -0.06570629 0.037652627 -0.10157073 -0.017601695 0.092306465
0.009103501 -0.020138716 0.095985346 -0.0806724 -0.08876499 -0.046976678 0.049093775 0.020288259
0.01061567 -0.013343089 0.0387672 0.009360937 -0.057375547 0.05436681 0.06205511 0.033085756
-0.09236661 0.007774223 -0.0030252861 -0.07616356 0.08722254 0.062811404 0.08390517 0.074404225

convs.1.layers.0.layers.1.weight f4 [32]
00000000: 6460 7d3f f483 7f3f c5f6 7e3f 7d75 7e3f
00000010: 99a6 7f3f a66a 813f 33a5 7f3f 0c61 7e3f
00000020: 502e 803f 39b5 803f b45e 7f3f a973 813f
00000030: 23c6 7f3f 0966 803f 7d3d 7e3f 06c6 7f3f
00000040: 6246 7e3f e731 823f 7428 813f 70a5 7e3f
00000050: ca20 803f 505c 7c3f 4502 7f3f a6f8 7f3f
00000060: 71f4 803f 5f5e 803f 29ab 7e3f 691d 803f
00000070: 31ae 813f 8e1c 7e3f cca6 803f 0edf 7e3f
0.98975205 0.9981072 0.9959529 0.9939802 0.9986358 1.0110672 0.9986145 0.9936683
1.0014133 1.0055305 0.9975388 1.0113422 0.9991171 1.0031139 0.99312574 0.99911535
0.99326146 1.0171479 1.009047 0.9947119 1.0010006 0.9857836 0.9961284 0.9998878
1.0074598 1.00288 0.9947992 1.0008975 1.0131284 0.9926232 1.0050902 0.99559104

convs.1.layers.0.layers.1.bias f4 [32]
00000000: 0f49 1abc 441a 8839 2bae 1fbc 7655 e0bb
00000010: 9ef6 acbb d761 683b 8017 c0bb e88e 98bb
00000020: 7a2b cbbb 1519 603c 883b 8a3a 963b 893c
00000030: c8f3 ddbb 9ca9 fe3b f7f6 e6bb b873 ebbb
00000040: 0491 32bb b1ad 203c 302f 8f3b 4736 beba
00000050: c23f f33a 2ad5 57bc 3eb0 153c e2c6 833b
00000060: 7ea1 693c f0c5 0a3c 1454 823c 9a9b 42ba
00000070: 6a53 b33b 6cd7 853b eac3 933c 1c91 a23b
-0.009416833 0.0002595951 -0.009746115 -0.0068461252 -0.0052784225 0.0035458708 -0.0058621764 -0.0046557076
-0.006200251 0.013677855 0.0010546306 0.016752046 -0.0067734458 0.007771684 -0.0070484835 -0.0071854256
-0.002724708 0.009807036 0.004369639 -0.0014512026 0.001855843 -0.013173381 0.009136258 0.0040215114
0.014259694 0.008470044 0.015909232 -0.0007423699 0.00547259 0.004084518 0.018037755 0.004961146

convs.1.layers.0.layers.1.running_mean f4 [32]
00000000: 3d42 823d 499f 1f3f 634a ef3d 1a7c 1dbe
00000010: ac41 013e b5fa 1c3e 0a3c f8be d57c 86bc
00000020: 8c5a 8d3c a257 4dbe 5d35 5ebe 088f e5be
00000030: c11e 033f 17e7 f53d e1ec 5dbe 51bf 2b3e
00000040: a1e0 bd3e b759 25bc 6191 37bd 5b5e 77bd
00000050: 370d 2ebe dee3 b4be c7f2 0b3d 2547 99be
00000060: c7dd 923c b160 513e 3099 de3e 824c 203e
00000070: 469c 163e e53c 0d3f 8102 e4be 1248 003d
0.0636029 0.62352425 0.1168411 -0.15379372 0.12622708 0.15330012 -0.48483306 -0.016416946
0.01725509 -0.2005296 -0.21700044 -0.44835687 0.512188 0.120069675 -0.21672393 0.167722
0.3708544 -0.0100921905 -0.04481638 -0.06039272 -0.16997229 -0.353301 0.034167077 -0.2993709
0.017928017 0.20447041 0.43476248 0.15654185 0.14708051 0.5517104 -0.4453316 0.03131873

convs.1.layers.0.layers.1.running_var f4 [32]
00000000: aeaa 303e a254 fd3d 8a57 f03d 4685 473e
00000010: f567 9e3e c4b0 a13e 07c9 8b3e 55bf ab3d
00000020: 4c19 093e 9d5f 433e 068a 5b3e e115 943e
00000030: c2d2 a03e e174 703e 25c7 483e 19fe 5a3e
00000040: 975f 053e 456d 293e 70d7 103e 81ca 203e
00000050: 81c5 073e 9644 333e ffe2 943e b718 2f3e
00000060: ea2f 253e 5cd0 213e 86d3 ad3e 0459 0d3e
00000070: a3e8 de3d 342c b43d 87ba fe3e bd32 643e
0.17252609 0.12369658 0.11735447 0.19484434 0.30938688 0.31580174 0.2730181 0.08386103
0.13388556 0.19079442 0.2143937 0.28922942 0.31410795 0.23482086 0.19607218 0.21385993
0.13024746 0.1654559 0.14144683 0.15702249 0.13258936 0.17506632 0.29079434 0.17099272
0.16131559 0.15802139 0.33950442 0.13803488 0.10884216 0.087974936 0.49751684 0.2228498

convs.1.layers.0.layers.3.weight f4 [32, 32, 3]
00000000: 86cb 723d 493e 13bd affc c8bd de5a fc3c
00000010: 9719 debc d295 4cbb c8e3 59bd 51ec 693d
00000020: 512a 84bc 0e8a 8a3d 2bfb 90bd d817 1fbb
00000030: 2e8f 4bbc 11c1 24bd 8306 ac3d d625 4dbd
00000040: b471 953d cba1 5a3d fd3f 78bc f04f 37bd
00000050: 6a6e 29bc a5dc b4bd dcf4 373d 76a2 dcbd
00000060: 6fd2 e43b 58e8 67bc 8de2 a3bd 4da4 c73d
00000070: caa7 28bd 2b18 9f3d 2ae7 943d 358b 8e3c
00000080: 06e8 1fbd 9428 c8bd 14b3 b4bd 7fbc ccbd
00000090: 1a49 c43d 500b 7f3d 1e64 f0bc 024b 883d
000000a0: 4489 b6bd b1b5 713a 2f59 4a3d 2772 803c
000000b0: bf3b bcbb 4abe 163c 3588 60bd c060 cbbd
000000c0: 7515 3bbc 7cad 793c aa14 a7bd 70f2 253d
000000d0: 8906 bd3d f1d0 dc3a b07d 593d dbab 74bd
000000e0: 6f1e 923d a2be 973d 7d00 f13c 3a85 7f3c
000000f0: 671a 283d a58c 513d df80 6b3d fac5 ba3d
00000100: a2df 903d 165d 873d 803a b8bc 0e27 b83d
00000110: 828b c43d d6a7 d13d 3a44 893d 0023 db3d
00000120: 5646 043d 59c1 a7bd 163c 54bd cf5a 81bc
00000130: 3784 94b5 8c97 3bbc 8f0b 5bbd e386 a33d
00000140: c9b6 2fbc a2aa 3d3d d925 c63c f04d 723d
00000150: 8be9 cbbd fc20 b8bd cbc5 a13d 3086 64bd
00000160: 9214 093d 1c87 0e3d 7a33 a73d c3df dabb
00000170: 225b 593d 6312 dcbc afba 96bd e66b 8dbd
00000180: 73db 8fbd f119 c53d aec8 8dbd 6bea b13b
00000190: cf5a 6dbb 922a bf3c ffbd 743b d615 57bd
000001a0: 918d a63d 5ffc 7cbc 47b0 84bd aaab f23c
000001b0: c4e5 45bd a5ab a9bc 266d e13c ee7c 98bd
000001c0: b162 a73d b643 42bd cf3b 08bc 8bc9 80bc
000001d0: 9586 81bd 575e 873d 4875 1e3d 7eee 3c3d
000001e0: 023a e93d e05d ce3b 7f18 ed3c 0370 cb3d
000001f0: ca27 45bd 98cc d7bb 67de 213d c9e5 57bd
00000200: 6526 813c 72a4 313d 81b1 47bd c1ad 75bd
00000210: 8ddd 043d 93a7 6d3d f0cb e23d 2c2b 8f3d
00000220: 11ef bc3c a7e4 67bd 6133 dd3b e483 033c
00000230: 3ad3 583d 7b3f 86bd 0fcd 8b3c 44e2 a63d
00000240: afb8 3bbd 4857 d13c b41d 84bb d4d8 f13d
00000250: 7465 69bd 55ae 8e3d 6c54 83bd de0f 2abd
00000260: a1cb 8a3d aad9 9f3d 7884 ae3c 67e0 4cbd
00000270: 1c5b 88bd 6202 9fbd 918c 87bd efc4 a1bc
00000280: df1b bc3c 28ca 6fbd 27cb bbbc f34d 983d
00000290: d4f7 a1bd acac a0bd b629 c9bc d7bf 68bd
000002a0: 2576 bbbd c6ad eebc 458d 813c 45e0 cabd
000002b0: 9384 573d 0fbb 143d ef23 98bd 6b32 9b3d
000002c0: 5a08 c5bd f1e8 723d 22a5 e0bc 65b6 c6bd
000002d0: aa8b 903d d901 913d fe36 943d be4d c93d
000002e0: 67bb 803d 092f 8b3d e0d3 913d 7e80 593d
000002f0: 5442 ae3d 66c5 cfbb e1e9 82bd a233 2abd
00000300: e64d 063d d91e 0cbd 6e0f 2d3d e702 b8bd
00000310: 5542 9cbd 4d88 aebd be87 283d 4ab8 eebc
00000320: 2eb5 4a3d 492a 7ebd 2b03 d43d 6759 693d
00000330: cfc5 aabd 5376 123c f562 0bbc 18a9 dbbd
00000340: 569c abbc 53e3 0e3c df2f a2bd 5a37 63bc
00000350: 2f49 46bd e8aa f8bc 3121 493d 287c 393d
00000360: 09a5 4abd 6d7e b8bd f912 b3bd 41b4 bcbd
00000370: 964b c6bd 00c0 1e3d bb7e 713b 117f 5c3d
00000380: f6ce c8bd d81b ba3d 0809 963c c3fc 693d
00000390: 650b 0a3b 0c81 9fbd d1fd bebd b782 aabd
000003a0: 402d 3cbd 56fc b1bd 99a8 c43c 5253 2cbd
000003b0: 9ba0 24bd 31f5 69bd cc41 1abc 6edb 033d
000003c0: d05b 8fbd 4290 6d3d 194d a43c e809 8abc
000003d0: 16d6 973d cfbd a23d 4f74 a9bd 69d5 803d
000003e0: 3db2 1bbd 891f d73c 0ec8 8d3d c391 cc3d
000003f0: c5d7 523d 4c15 773d c9e7 54bd 7c4e b13d
0.059276126 -0.03594807 -0.098138206 0.030805048 -0.027111812 -0.003121723 -0.053195745 0.057110135
-0.01613346 0.06764613 -0.070791565 -0.0024275687 -0.012424273 -0.040223185 0.083996795 -0.05008491
0.07297078 0.053376954 -0.015151975 -0.04475397 -0.010341266 -0.08831147 0.04491125 -0.107731745
0.0069830935 -0.014154516 -0.080021955 0.09748135 -0.04117564 0.077682815 0.072706535 0.017400363
-0.039039634 -0.09773365 -0.08823219 -0.0999689 0.095842555 0.062266648 -0.029344615 0.066549316
-0.089129 0.00092204945 0.04940146 0.015679432 -0.005744427 0.009200642 -0.054817397 -0.09930563
-0.01141869 0.015239116 -0.08158238 0.04051441 0.09229762 0.0016846937 0.05309838 -0.059734207
0.07134711 0.07409407 0.029419178 0.0155957285 0.041040804 0.05115952 0.057495948 0.09119792
0.070739046 0.066095516 -0.022488832 0.08991824 0.095969215 0.1023709 0.06702466 0.10700035
0.03229364 -0.08191175 -0.051815115 -0.015790371 -1.1065339e-06 -0.011449706 -0.05347782 0.07984712
-0.010724732 0.046305306 0.024187969 0.05915636 -0.09956654 -0.08990666 0.07899054 -0.055792034
0.033466883 0.03479682 0.08164115 -0.0066795065 0.053065427 -0.026864236 -0.07359826 -0.069053456
-0.070242785 0.096240886 -0.06923042 0.005429556 -0.0036217456 0.023335729 0.0037344692 -0.05251106
0.081324704 -0.015441029 -0.06478935 0.029622871 -0.048314825 -0.02071173 0.027517866 -0.074457034
0.08173121 -0.047427855 -0.008315041 -0.015721103 -0.063244976 0.06609791 0.038686067 0.04612588
0.11388017 0.006297812 0.028942345 0.09933474 -0.04813365 -0.006585669 0.03951874 -0.052709375
0.015765378 0.043369718 -0.048753265 -0.059980158 0.03243785 0.05802114 0.11074054 0.06990656
0.023063214 -0.056614544 0.0067505096 0.008027051 0.052935816 -0.06555077 0.017065553 0.081486255
-0.045830425 0.025554314 -0.004031861 0.11808935 -0.05698152 0.06966845 -0.064125866 -0.04151904
0.067771204 0.07805188 0.0213034 -0.050018694 -0.06658003 -0.07764126 -0.06618608 -0.019747226
0.022962509 -0.0585424 -0.022924019 0.07436743 -0.079085976 -0.078454345 -0.024556022 -0.056823578
-0.09153394 -0.029135596 0.015814433 -0.09906057 0.052616667 0.036311205 -0.07428729 0.07577976
-0.096207336 0.05930418 -0.027422491 -0.09702758 0.07057889 0.070804305 0.072370514 0.09829281
0.06285744 0.067960806 0.0712049 0.053101055 0.08508745 -0.0063406704 -0.06392265 -0.041553147
0.032789133 -0.034209106 0.042251043 -0.089849286 -0.07629839 -0.08522091 0.04114508 -0.02914061
0.049489193 -0.062052045 0.10352167 0.056970026 -0.0833851 0.0089393435 -0.00850748 -0.107256114
-0.02094857 0.0087211905 -0.07919287 -0.013868177 -0.048409637 -0.030354932 0.04910392 0.04528442
-0.049473796 -0.09008489 -0.08743853 -0.09214068 -0.096823856 0.038757324 0.003684922 0.053832117
-0.098051 0.09087342 0.018314853 0.057125818 0.002106392 -0.077882856 -0.093257554 -0.08325713
-0.04594159 -0.086907074 0.024006175 -0.042071648 -0.040192228 -0.0571186 -0.009415101 0.032191686
-0.06999934 0.057998903 0.020056294 -0.016850427 0.074138805 0.07946359 -0.08274137 0.06290705
-0.03801178 0.026260154 0.06922923 0.09988739 0.051475305 0.060323045 -0.05197886 0.08657548
